model.pth (torch, 595371 bytes, 27 tensors)

model.0.0.weight f4 [15, 1, 3, 3, 3]
000000 2d 08 33 3c 91 ba 98 3c c9 26 49 bd 14 06 c1 3d
       0.010927242 0.01864365 -0.049109254 0.094249874
000010 04 2e 77 3d d9 70 82 3d 23 29 7b 3b 03 31 11 3d
       0.06034662 0.0636918 0.003832408 0.03544713
000020 00 da 1b 3d 69 fb a0 3b 76 89 ec bd 0e 9e e2 bd
       0.038049698 0.004912783 -0.11549656 -0.11065303
000030 7c 4e 17 3d 27 a7 80 bf 2c dd 1c be 45 5f 8d bd
       0.036940083 -1.0051011 -0.15318745 -0.06902937
000040 f3 a4 a5 bd 0b 97 42 bd 82 00 97 3d 6f fb 42 3d
       -0.08088102 -0.047507327 0.07373144 0.047603067
000050 db 0b b7 3b 40 d3 b3 3d e6 0b ad 3d 96 28 9a 3d
       0.00558613 0.08780527 0.08449535 0.075272724
000060 9e d9 25 3d ae f1 19 3d 4b 27 ba b9 0c a2 8d bd
       0.04049074 0.037584 -0.0003550596 -0.069156736
000070 03 66 8a bd ff 38 81 bd 1c 2e 07 be 1f 22 b1 bd
       -0.067577384 -0.06309699 -0.13201183 -0.08649086
000080 d1 ad f9 bd be a5 89 be 95 6a 32 bd 81 09 f5 bd
       -0.12191356 -0.26884264 -0.043558676 -0.11964703
000090 ae 55 88 bd 0b 25 3f bb 2a fe b1 bc 56 07 6c 3d
       -0.06656967 -0.0029166366 -0.02172764 0.057624184
0000a0 9a 31 8e bf 2a 13 1b be 98 bf 0a be 4a 81 03 3c
       -1.1108887 -0.1514403 -0.1354965 0.00802643
0000b0 2b c3 5b bd c7 1d 23 be 67 a2 44 bc 7f 5f b0 bb
       -0.053652924 -0.15929328 -0.01200161 -0.005382478
0000c0 75 b0 00 be 2a ab 62 3d 03 e2 16 bd f5 9e 50 be
       -0.12567313 0.055339016 -0.036836635 -0.20373137
0000d0 e9 8a 9c bd dd 41 53 bd 1a 4c d4 3c 59 16 90 bc
       -0.076436825 -0.051576484 0.025915194 -0.017588781
0000e0 4d 2a a4 3c 3e b6 b8 bc ff ce d7 ba f0 f2 2f bd
       0.020039702 -0.022547837 -0.0016464888 -0.042956293
0000f0 dd a9 8b 3d d6 0f e3 3b 6b cf 56 bc e5 4d c5 3c
       0.06819508 0.006929378 -0.013110976 0.024084995
000100 e9 bc c7 be 99 71 a1 bd f3 34 6e bc 6d 8f a1 bf
       -0.39011315 -0.07882995 -0.014538991 -1.2621895
000110 d5 cb 7b 3d cf 31 7b 3d 43 bf bd 3d aa f8 1c ba
       0.061473686 0.061326798 0.09264996 -0.00059879816
000120 b0 7a b8 3d 7a e9 b7 bd cd dc 2c bd 7c 59 23 bc
       0.09007776 -0.08980079 -0.04220276 -0.009970065
000130 cb ca 7b bd 83 1b 88 bd 98 ab 9b 3d 4d 02 9a 3d
       -0.061472695 -0.066458724 0.07601088 0.0751997
000140 85 57 4a bc d4 b7 ad ba c3 8c a0 3d fe 1d 28 be
       -0.012349968 -0.0013253638 0.07839348 -0.16417691
000150 ea 75 21 bd 32 93 73 3d e1 dc 89 be 78 42 10 be
       -0.039419092 0.05946655 -0.2692633 -0.14087856
000160 9d 83 2e be e7 66 16 bf b1 fc 17 3c 2c 7c ed 3e
       -0.17042394 -0.58750767 0.009276555 0.46383798
000170 15 b3 c6 3b 2a c3 14 3d 62 b6 fb bd 91 97 e8 3d
       0.0060638287 0.036318935 -0.12290646 0.11357034
000180 f7 6b 82 bc 65 00 b1 3d ec 99 70 be 97 78 23 bd
       -0.015920622 0.086426534 -0.23496217 -0.039909925
000190 ff 0e fb 3d 2f 7c 10 be 56 66 5f bd 23 01 17 3e
       0.1225872 -0.14109872 -0.054540955 0.14746527
0001a0 fa 8c ce bd b3 14 dc bd 11 e8 4e bd 5b aa a7 be
       -0.10085483 -0.107461356 -0.050514285 -0.32747158
0001b0 b2 ac 05 be f2 de f4 3b 7a 2c 00 bd 66 92 dc 3d
       -0.1305416 0.007472866 -0.031292416 0.10770111
0001c0 3b b7 34 3e 4f 17 f0 3d 0e 11 0e be 61 57 81 bc
       0.17648022 0.11723196 -0.13873693 -0.015788736
0001d0 3c e8 7f bd 48 ff 8f bd 4a f0 bc bd a5 69 27 3d
       -0.062477335 -0.07031113 -0.09225519 0.040872235
0001e0 cb 55 38 3e 69 cd 6e 3e 87 74 67 3e b6 7e fb bc
       0.18001477 0.23320545 0.22603045 -0.030700069
0001f0 61 3a 02 bc 7b 5e 5f bd ac a7 29 bf 65 c6 b1 be
       -0.007948489 -0.054533463 -0.6627147 -0.34721676
000200 ee 2a ce be 4e c3 18 3d d6 19 82 3b d1 b3 04 3b
       -0.40267128 0.037295632 0.003970365 0.002024878
000210 39 a1 99 be 4b 59 c4 bd c9 3d 80 be 7e 3a c1 bc
       -0.30005816 -0.09587344 -0.25047138 -0.023587462
000220 f6 53 a5 3c 50 d7 14 bd 6e 2c 4a bd ee 61 2b bc
       0.020181637 -0.03633815 -0.049358778 -0.01046036
000230 91 00 41 3d 88 38 d0 bc 28 a4 be 3c 77 8e 0f 3d
       0.04711968 -0.025417581 0.023271635 0.035047974
000240 21 f9 e7 3c 24 89 9d bf 88 85 b7 3d 5b e4 c5 bc
       0.028317036 -1.2307477 0.08961016 -0.02415674
000250 7e 49 c7 3d f8 95 0a 3e fe ad cf ba f9 25 0b bd
       0.097308144 0.13533771 -0.00158447 -0.03397176
000260 9c 09 54 3d ff b8 92 ba ab 79 af ba 8e 2f 15 bd
       0.051766977 -0.0011194049 -0.00133877 -0.036422305
000270 86 e5 61 bb ac 1a 4f 3d 91 de 56 3d e1 00 6e bc
       -0.0034469082 0.050562546 0.05245835 -0.014526577
000280 49 dc 3f 3c b8 06 20 3d 60 d5 c7 3b 63 73 89 3d
       0.011710235 0.039068907 0.0060984343 0.067114614
000290 b3 a7 a4 3c 35 0a e7 3b 17 45 6c 3d d7 85 62 3d
       0.020099496 0.0070507773 0.057683077 0.05530342
0002a0 5e 3a 35 bc bd e3 4f 3c 0a cb 86 3b 96 4c 72 3b
       -0.011061279 0.012688574 0.0041135596 0.0036971918
0002b0 48 3d 6f 3e b2 23 54 3d 78 5f 2f 3d ff 19 95 bf
       0.2336322 0.051791854 0.042815655 -1.1648558
0002c0 30 7a 45 bc 73 60 4e 3b a4 7f 9b 3c a0 ff 8e bb
       -0.012053058 0.0031490594 0.018981762 -0.004363969
0002d0 cb a9 60 bc 5d 22 29 3d 49 c3 0a bc a3 96 ff bb
       -0.013712357 0.041292537 -0.008469411 -0.0077999397
0002e0 a4 62 55 3d 63 47 28 3c 71 2a 27 bc 53 34 0b b8
       0.052096024 0.010270926 -0.01020299 -3.3188913e-05
0002f0 8b 2e 43 3b 0a 96 cb bc 6f 94 50 3d 4a 68 96 3b
       0.002978238 -0.024851818 0.050922807 0.004590069
000300 a7 c7 57 bb e9 7d eb 3d 90 83 e1 3d 28 46 62 3d
       -0.0032925399 0.11498625 0.11011422 0.055242687
000310 d2 79 22 3c 9a 0a a2 3c 61 31 87 3c 77 00 5b 3e
       0.00991674 0.019780446 0.016503038 0.21386896
000320 e5 28 92 3d 11 25 23 3c 3d 81 9f 3f 34 81 b9 3e
       0.07136706 0.009957568 1.2461315 0.36231387
000330 ff c8 29 3d 10 4a e3 bc ce 00 36 3d 6a 38 35 3a
       0.04145145 -0.027745277 0.04443436 0.00069130084
000340 8e 46 be bc f8 f7 89 bc 28 f2 96 3c c6 17 29 bd
       -0.023227002 -0.016841874 0.018426016 -0.041282438
000350 ef c6 24 3c 77 70 13 3d 64 16 4f 3d 97 50 9b 3c
       0.010057195 0.035995927 0.050558463 0.018959327
000360 e2 09 00 3c 3a dd 2f 3d a6 40 63 bd 03 85 0d 3d
       0.007814856 0.042935587 -0.055481575 0.034550678
000370 be 33 ea 3d 83 b5 4a bd ec 38 04 bc 1b 27 31 3d
       0.1143565 -0.04948951 -0.008070212 0.043250185
000380 e3 a9 b3 bd ec 8b a4 3c 1a fb ed bd 5a 39 24 be
       -0.08772638 0.020086251 -0.116201594 -0.16037503
000390 bd e7 84 3d 5f 7c 08 3f 54 91 38 bf ab 45 39 3d
       0.06489513 0.53314775 -0.72096753 0.045232456
0003a0 fd 84 a4 bc bb 73 2b be 5f 6d e5 3c fa ce c3 bc
       -0.020082945 -0.16743366 0.028006254 -0.023902405
0003b0 1f 55 97 bd 76 7b 1d 3d b9 d5 c5 3d 2e d3 ad bd
       -0.073892824 0.03844782 0.09659905 -0.08487545
0003c0 02 b5 95 3a 1a 19 4e bc 71 81 d1 bd d4 7b 81 bd
       0.0011421742 -0.012579227 -0.10229767 -0.063224465
0003d0 08 d2 38 bd e1 b7 fc bd e5 93 c8 bd 35 54 a3 bc
       -0.045122176 -0.123397596 -0.09793834 -0.019937614
0003e0 62 31 34 be a2 bd 98 bc 53 bd 4a 3c af a0 e0 bc
       -0.17596963 -0.018645111 0.01237424 -0.02742037
0003f0 5e 3c c2 bc 95 cf cb 3d c6 15 9c bd 4b 14 82 bc
       -0.023710426 0.099517025 -0.076213405 -0.015878817

model.1.0.weight f4 [15, 15, 3, 3, 3]
000000 04 12 8e 3d f3 ed 3c 3e 86 01 f3 3c 80 0f 9e 3c
       0.0693703 0.18450145 0.029663812 0.0192945
000010 d1 60 97 3d 4e c1 42 3d 34 17 d8 3c 3f 22 27 3e
       0.07391513 0.04754763 0.026378252 0.16321658
000020 1b a9 97 3c f1 86 1c bd fb 98 ea 3e fd 13 79 3e
       0.018513253 -0.038214628 0.4581984 0.24324031
000030 bd de 87 bd 7a b5 22 be 8e ee b7 3d 83 14 83 3d
       -0.06634281 -0.1588954 0.089810476 0.06400397
000040 6e 19 c8 3d f3 5c df bd 22 57 32 3e 16 1f f0 3d
       0.09770475 -0.109064005 0.17416051 0.11724679
000050 f1 a3 77 bb b9 c8 98 b9 25 ff dd 3d 1c d3 7d bc
       -0.0037786926 -0.0002914125 0.108396806 -0.015492227
000060 43 20 be 3d 7c b5 95 3d c1 e7 5c 3d e1 83 fd 3c
       0.09283497 0.07310006 0.053931955 0.030946674
000070 3a ab 23 3e 35 4a 88 bd 5c 38 86 3d e9 44 a6 bd
       0.15983286 -0.06654779 0.065537184 -0.08118612
000080 e5 b7 0b 3d 05 56 f0 bd aa c2 dd bd 92 b3 0f bc
       0.034110922 -0.11735157 -0.10828145 -0.00877084
000090 28 5e 89 3d db ea f0 3e 41 03 bc 3d 89 51 0f bc
       0.06707412 0.4705418 0.09180308 -0.008747467
0000a0 68 79 16 be c3 a1 d2 bb e7 a1 b8 bc e0 fb ac bd
       -0.1469475 -0.006427975 -0.022538139 -0.08446479
0000b0 ae 8a f0 3d 5a 8b 14 3c 6a b6 d0 bc c8 09 fd bc
       0.11745201 0.009066427 -0.025477607 -0.030888453
0000c0 6f 79 b6 bc 4c 54 f2 bd 5a 90 a9 3c 7c af 4f 3d
       -0.0222747 -0.118324846 0.020698715 0.050704464
0000d0 e5 29 1e bd 1e f5 15 3c 75 df 87 3d 20 7f 8d bd
       -0.038614172 0.009152679 0.06634418 -0.06909013
0000e0 15 f0 28 3d ba 41 81 3d 1d 9d 70 3d 6f c9 be 3d
       0.041244585 0.063113645 0.058743585 0.09315764
0000f0 72 20 c7 3d c2 1e 9b bd e5 dc 9c bd f1 d8 84 bc
       0.09722985 -0.07574226 -0.0765932 -0.016216727
000100 52 0a 18 3f 88 5d c4 3e e2 1f f6 bd 54 05 1b be
       0.5939075 0.3835261 -0.120178 -0.15138751
000110 53 f2 b0 3d ed 1e 10 3e fc ec 63 3e f1 6f 51 bd
       0.0863997 0.14074297 0.22258371 -0.051132146
000120 9f 3d 8f bd 01 c8 5c be 30 ab 1f bd 89 50 ab bd
       -0.06994175 -0.2156067 -0.038981616 -0.0836497
000130 53 c4 f9 bd d8 e0 87 bd b0 b5 5e be db 25 cd bd
       -0.12195649 -0.066346824 -0.21748996 -0.10016986
000140 77 7c be bc 82 97 51 bd 9b 70 7a bc 5c 1c 2d be
       -0.023252709 -0.05116988 -0.015285636 -0.1690535
000150 ba b7 11 3e c5 99 33 3d 17 7c 22 be 13 35 c0 bd
       0.14230242 0.043847818 -0.15867649 -0.09385123
000160 16 25 1d bd e2 27 65 bd 04 bd ea bc a3 4c 60 bd
       -0.038365446 -0.05594624 -0.028654583 -0.054760586
000170 c9 51 c8 bc 80 01 cb bd 1e 95 83 be ad f7 f6 bc
       -0.02445306 -0.099123955 -0.25699705 -0.030147398
000180 4c bf 3a 3d e9 f0 22 be a6 c8 7d be 4c e4 36 bd
       0.04559259 -0.15912212 -0.24783573 -0.044651315
000190 ee 3e d8 bc b2 eb 2f be 8d 15 90 3c 03 77 e7 bd
       -0.026397195 -0.17179754 0.017588401 -0.113019966
0001a0 5f 0e 0c be 0e 4f f1 bd b1 9a 6c bd a3 13 1c be
       -0.13677357 -0.117826566 -0.057764713 -0.15241866
0001b0 bb cd cb 3d b0 de 9c 3c d6 bb 2e 3e dc e2 a2 3d
       0.09951349 0.019149154 0.17063841 0.07953426
0001c0 87 54 18 be fb fd ef bd c5 e5 b3 3b a2 5f b8 bd
       -0.14875995 -0.11718365 0.005490037 -0.090026155
0001d0 7f 4f 89 be 69 5e 06 3d 07 f5 6c 3d a5 a9 60 3d
       -0.26818463 0.03280488 0.057850864 0.054849286
0001e0 8c 74 16 3d d2 6f 64 bd 5c b9 2d bd 74 66 ea ba
       0.03673224 -0.055770703 -0.0424131 -0.0017883317
0001f0 48 19 6b 3d 76 a7 ae bd 41 1a c5 3d 70 a7 07 3e
       0.057397157 -0.085280344 0.09624148 0.13247466
000200 ed ff a9 3d b1 28 81 3d c5 22 ab 3d 6f 9e 85 3b
       0.08300767 0.063065894 0.08356241 0.0040777246
000210 a6 a1 22 3d df 27 bd bc ad 79 28 3d 4c 8e a2 3d
       0.03970494 -0.023090301 0.041131664 0.07937297
000220 62 01 84 3d c0 4a 65 3e 46 19 9a bb c7 4c 03 bd
       0.06445576 0.22391796 -0.00470272 -0.032055642
000230 a7 a2 1e 3d 26 6c 40 3e 61 fd ff 3d fd ef f7 bd
       0.038729336 0.18791255 0.124995 -0.12106321
000240 f4 78 ac bd bd 6a 3d 3c e8 d4 e6 3b 3b 2b 8f bd
       -0.084215075 0.011561093 0.0070444234 -0.069906674
000250 2c ef 12 3d 31 2e f4 3b c9 41 2c 3e 9c 33 75 3f
       0.035872623 0.0074517955 0.1682197 0.95781875
000260 ff 95 9c 3e fa 4d c5 bd 37 9f 33 bc 13 31 19 bd
       0.30583188 -0.096340135 -0.010963253 -0.037400316
000270 14 8e 9f 3c b8 ea 09 3e 3b 6c b3 3d bb 1e d1 3c
       0.019476928 0.13468444 0.08760878 0.025527349
000280 c9 d3 63 3d e6 dd b7 3d 07 b4 13 3e c2 bc 30 3d
       0.055621896 0.08977871 0.14424144 0.043148763
000290 ea 91 ac bd e3 00 0a 3c e4 cf be bc 48 f1 05 bc
       -0.084262684 0.008423063 -0.02329249 -0.008175202
0002a0 46 97 72 3d 1f e8 e3 bc a4 1d e8 3d 3c 8b 0a 3e
       0.059226297 -0.027820645 0.113337785 0.13529676
0002b0 b5 79 74 3f 47 72 e1 3d d9 a5 d8 bc 8d 5a 22 bf
       0.9549821 0.11008125 -0.02644627 -0.6341942
0002c0 01 d8 bf bd c3 97 6c bc 74 f6 c0 be 45 c8 6f be
       -0.09367371 -0.01444048 -0.3768803 -0.2341624
0002d0 db dc dd 3b ce 55 f7 bd a4 93 50 3c 5e da fd bd
       0.006770713 -0.12076913 0.012730513 -0.12395166
0002e0 ad 04 12 be 31 a0 73 be 68 d0 e2 bd 13 11 39 be
       -0.14259596 -0.23791577 -0.110749066 -0.1807292
0002f0 07 df e0 bd 40 21 37 3d 05 bb db 3d f2 74 89 3e
       -0.10980039 0.044709444 0.107290305 0.26847035
000300 b0 ce 21 bc a3 91 84 3d 2d 30 02 3e c7 c5 84 3d
       -0.009875938 0.064730905 0.1271369 0.064830355
000310 ce 52 0f 3e fd 00 9a 3c 5a ab 6e be 62 a9 05 bf
       0.13996431 0.0187993 -0.23307553 -0.5221158
000320 93 b5 20 be 5a a7 a7 3d 01 2e a2 3e 7c 63 32 3e
       -0.15694265 0.08186217 0.31675723 0.17420763
000330 99 51 82 bd 95 b3 56 be 2b 6a 94 bd 43 56 a9 3d
       -0.0636322 -0.20966943 -0.072468124 0.08268406
000340 e6 71 ae 3c 11 d1 89 3d 2e 46 e2 3d c5 94 8d bc
       0.021294545 0.067293294 0.11048542 -0.017282853
000350 ca 2c 9f 3d d2 58 be bc 61 d8 69 3e 14 04 4b 3e
       0.07772215 -0.023235712 0.22836448 0.19825774
000360 f9 bd 93 bc 07 e7 f6 bd 1c 52 f6 bb d1 f3 ca bd
       -0.018034922 -0.12055784 -0.0075171124 -0.099097855
000370 53 6b d7 bd ab 2c 74 3d 83 ce 02 be 91 60 82 bd
       -0.10518517 0.05961291 -0.1277409 -0.06366075
000380 c2 90 08 be 66 2e 12 3e dc 51 a2 be b3 38 91 be
       -0.1333647 0.14275512 -0.3170308 -0.2836357
000390 57 08 1f 3e 15 95 54 bd fc bd 3d be 8f ae 17 be
       0.15530525 -0.05189999 -0.18529505 -0.14812683
0003a0 52 f3 28 be 1b d3 82 bd 61 2d 92 bd 83 3c 56 be
       -0.1649907 -0.063879214 -0.071375616 -0.20921521
0003b0 4b b0 cc bd c3 2a b0 bc 30 85 d8 bd a4 18 e1 bd
       -0.09994563 -0.021504765 -0.105722785 -0.10991028
0003c0 17 a4 2e be 26 46 d8 bd 64 4e bf bd 20 7f 12 3d
       -0.17054783 -0.10560255 -0.09341124 0.035765767
0003d0 85 12 d3 bc 26 0e 22 be 1a 68 2c bc 41 9e f6 bd
       -0.025765667 -0.1582571 -0.010522867 -0.12041903
0003e0 59 f0 4a be c4 f7 0a 3d 6a 66 8a bd fe 0e 59 be
       -0.19818248 0.033927694 -0.06757815 -0.21197125
0003f0 29 cb 7c 3d ca ef d2 be eb ac 86 bd 62 08 36 bd
       0.061717186 -0.4119857 -0.0657595 -0.04444159

model.2.0.weight f4 [15, 15, 3, 3, 3]
000000 ab 9b f4 bd e7 aa 4b 3b 4a 28 89 bd 53 e2 cc 3e
       -0.11943754 0.0031077208 -0.06697138 0.40016422
000010 f4 25 86 be 86 f2 c5 3e fa 63 92 3e 0d 19 bd be
       -0.2620083 0.38661593 0.285919 -0.36933175
000020 16 64 8c 3e 3e d9 d3 bd 0c 86 4e 3e 1f eb 1d bd
       0.2742011 -0.1034417 0.20168322 -0.038554307
000030 cb 23 4a 3e 6e 80 21 be df d0 f2 3d 1b a9 3c be
       0.19740216 -0.15771648 0.11856245 -0.18423884
000040 0b 0e 43 be f7 91 74 bd 26 35 9e bc 23 25 e4 bd
       -0.19048326 -0.059709515 -0.019312453 -0.11139896
000050 f9 76 4b be e3 6d 91 bc 4f 64 0e be e7 29 2f 3d
       -0.19869603 -0.017752593 -0.13905452 0.04276457
000060 b6 ac a0 3d b0 d5 43 3d 03 13 15 3d 65 c9 b3 3d
       0.07845442 0.04781121 0.036395084 0.08778647
000070 22 74 bc bc ef 17 8b 3b 1d 2c 47 be 7a c7 0e 3d
       -0.023004595 0.0042447965 -0.19450422 0.034858204
000080 b6 56 52 ba 6e fc a4 bd d1 7e 54 3d f3 1d ba bd
       -0.0008023785 -0.0805596 0.051878754 -0.090877436
000090 6e 25 6d be 32 b2 25 bc 36 c0 7a 3e 4e b5 0c be
       -0.2315881 -0.010113286 0.24487385 -0.13741037
0000a0 42 d6 18 3d fe aa 22 bd b7 9e 5a 3d 8c 80 c1 3d
       0.037313707 -0.039713852 0.05337402 0.094483465
0000b0 53 02 b7 bd 0c 6a ad 3c a1 2b ba bc 7f 67 b1 bd
       -0.0893599 0.021168731 -0.022725882 -0.086623184
0000c0 ad 2a 12 3d 54 1e 20 3e b5 fa 4f 3e 88 39 a9 3d
       0.03568523 0.1563657 0.20310481 0.08262926
0000d0 37 ef 79 bd e3 a8 0b 3d d0 07 6b 3c e5 11 63 bd
       -0.06101915 0.03409661 0.014345124 -0.055436987
0000e0 2f 05 cd 3d a5 b1 da 3e d4 8e 5b bd 95 00 f8 be
       0.10010754 0.42713657 -0.05360301 -0.48437944
0000f0 d3 49 9d be 12 a5 c2 3e e6 7c 3c 3e ba 16 e2 bd
       -0.30720386 0.38016564 0.1840702 -0.11039491
000100 c5 00 a0 bd 48 81 cd 3d dd 47 9b 3e f9 7a 56 3d
       -0.07812647 0.10034424 0.30328265 0.05236337
000110 e8 0c d5 be 31 98 e3 be 1f ab ee 3e ad d5 e0 3e
       -0.4161141 -0.4445205 0.4661493 0.43913022
000120 34 5b c2 3c ac 18 49 bd 24 bd a6 bc eb 38 4d be
       0.02372513 -0.049095795 -0.020353861 -0.20041244
000130 d8 2e 12 3e 7c aa 41 3e 3a d2 c5 3d 5b 21 32 be
       0.14275682 0.18912691 0.09659238 -0.17395537
000140 20 90 81 bd c5 7c bd 3e b2 4b 57 bd 67 4e 47 bd
       -0.06326318 0.37009254 -0.052562423 -0.048658755
000150 40 4d 18 bf d2 3f ae 3e 3c be 90 3c af b3 82 3e
       -0.59492874 0.34033066 0.017668836 0.25527713
000160 ca f5 8d 3d d5 35 76 3d 57 16 3d be 43 c2 80 3c
       0.06931646 0.060109932 -0.18465553 0.015717631
000170 70 09 92 3c af fa a0 be f8 f3 f1 bc ee 2a 95 bd
       0.017826766 -0.31441256 -0.029535279 -0.07283579
000180 5b b6 b9 3e 05 13 51 be 11 7e 95 3d b0 93 41 3d
       0.3627194 -0.20417412 0.07299436 0.047259986
000190 3c e7 ed 3d 2b ab 9e bd 35 f0 8e bd 21 71 54 bb
       0.1161637 -0.077474914 -0.069794096 -0.0032416063
0001a0 b8 e3 09 3d 4b 3d fb bc 61 d2 16 be ca cc 0f be
       0.033664435 -0.030668875 -0.1472869 -0.14042965
0001b0 17 fd b4 bc ee 6e a2 3e b6 e7 2e bd 8f 93 f1 3d
       -0.022093339 0.31725258 -0.042701446 0.11795723
0001c0 03 a2 09 be 69 b0 c0 3d a2 67 cf 3d 0b 2f de bd
       -0.13440709 0.094086476 0.10127188 -0.108488165
0001d0 92 1e c1 3d 6b f5 93 3c cf 77 8c 3e eb 34 4c 3e
       0.09429659 0.01806136 0.27435157 0.19942062
0001e0 87 58 2f 3d 33 44 05 be bc ed 90 bd f7 e6 3a 3d
       0.042809036 -0.13014297 -0.07076594 0.04563042
0001f0 9a ef 5e 3e db 0e 4e 3d ab e1 bb 3d 66 34 18 3e
       0.21771088 0.050307136 0.09173902 0.14863738
000200 1f c4 4c bc 7a 89 43 39 3b 8c 2f bd b9 a6 d0 3d
       -0.012497931 0.00018647863 -0.042858344 0.1018805
000210 3e 2a 99 bc 6b 3e b5 bd b7 2a 88 3d 7b 02 96 3c
       -0.0186969 -0.08849796 0.06648772 0.01831173
000220 4b dc 39 be c1 78 b4 3a f8 9e f0 3e c9 0f 43 be
       -0.18150441 0.0013768898 0.46996284 -0.1904899
000230 01 6e ea bd 5b 54 4f 3c 65 22 3b bd b3 6c 10 3e
       -0.11446763 0.012654389 -0.045687098 0.14103965
000240 4b 8f 3a be 4b 11 85 bd 3e 7d df bd fa 00 89 3e
       -0.18218724 -0.06497439 -0.1091256 0.26758558
000250 d8 6c 4f 3e 92 0d 3d 3d 73 01 26 be 14 6c c9 3d
       0.20256364 0.04615552 -0.1621149 0.098350674
000260 78 34 17 be d8 b2 cf bd ab a0 a6 be 31 11 9c bd
       -0.14766109 -0.101415336 -0.32544455 -0.076204665
000270 62 7a c4 bd 46 df ad bc a2 2c e9 3d ab 52 85 3d
       -0.09593655 -0.02122463 0.11385466 0.06509908
000280 20 2c 51 bd 78 71 40 3c cf 24 31 3d bd 86 fe 3d
       -0.05106747 0.011745803 0.043247994 0.12428043
000290 d6 e2 b0 3d 1a 38 11 be 31 18 86 3e 7d aa 73 bf
       0.086370155 -0.14181557 0.26190332 -0.9518202
0002a0 c3 4e 8e 3d 42 15 15 3f f0 42 91 be 94 f0 e1 bd
       0.06948616 0.5823556 -0.28371382 -0.11032215
0002b0 ec 19 07 3e d2 5e 20 3e 5f 14 8a 3d d1 ab 6e 3d
       0.13193482 0.15661171 0.06742167 0.058269326
0002c0 60 ff 6f be 70 48 39 3e e3 47 e7 3e 5e c9 e1 bd
       -0.23437262 0.18094039 0.45172033 -0.11024736
0002d0 e3 19 80 bc e3 74 fd 3c eb c6 09 be 1f 90 d1 bd
       -0.015637344 0.030939525 -0.13454787 -0.10232567
0002e0 92 15 d2 bd 40 d5 5b 3b 38 21 84 bc 03 91 75 be
       -0.102580205 0.0033543855 -0.016129121 -0.23981099
0002f0 c9 54 61 bd 79 9f d7 bc ff a4 2c 3c 3e 5e 0b 3e
       -0.055012498 -0.02632116 0.010537385 0.1361017
000300 a3 d4 ad 3e 7a 56 9c bd 56 98 73 3e 45 6f 42 3c
       0.3395129 -0.076336816 0.2378858 0.011867349
000310 d9 c5 9d bd 0f 5e 21 ba b6 de ad bd 19 b9 cb ba
       -0.07703752 -0.00061556784 -0.08489744 -0.0015542834
000320 a9 a6 07 be 2d 4b 18 3e b6 9e 0a 3e 6e b4 2d 3e
       -0.1324717 0.14872427 0.13537106 0.1696336
000330 51 b6 99 be b5 2b c8 bd 95 0a 11 be 76 42 10 3d
       -0.3002191 -0.097739615 -0.14164193 0.035219632
000340 f1 09 12 3e 9c e7 9c 3d b9 99 85 bc fa 19 8e bb
       0.14261605 0.076613635 -0.016308652 -0.0043365927
000350 da 7c 6c be 69 4e 89 bd 43 06 7f 3d 63 3a bc bc
       -0.23094502 -0.06704409 0.06226183 -0.02297706
000360 b2 d7 87 bc 14 01 02 be 80 6a 3e 3e ad 26 33 be
       -0.016582344 -0.12695724 0.18595314 -0.17495222
000370 89 01 36 3d f8 5f a6 bc 65 57 d8 bd df c0 35 3e
       0.044435058 -0.020309433 -0.10563544 0.17749356
000380 bb 30 d1 bc 21 f5 38 3e 68 fb d4 bd 1d ef 23 3d
       -0.025535932 0.1806226 -0.103995144 0.040022958
000390 8d 25 31 bd 03 26 ce bd 1c da 05 be 5d 6a 4a 3e
       -0.0432487 -0.10065844 -0.13071483 0.19767137
0003a0 85 23 29 3e 6e c2 43 3d 9d c2 0d 3e 9d 65 89 3c
       0.16517456 0.047792844 0.1384377 0.016772086
0003b0 89 0f d9 3d dc 09 9a 3d 06 f8 b8 bc 34 01 a6 3c
       0.10598666 0.07521412 -0.022579204 0.020264246
0003c0 93 2d 89 bd 06 a8 24 be e2 81 02 3d 5d 94 af bd
       -0.06698146 -0.16079721 0.031862147 -0.0857322
0003d0 a2 68 c4 bd b4 32 35 be 44 06 ac bd 70 30 39 be
       -0.095902696 -0.17695123 -0.083996326 -0.18084884
0003e0 44 8d f7 be 06 1c ad be 1c b1 c6 bd 9f 75 1d bd
       -0.48349965 -0.33810443 -0.0970175 -0.03844225
0003f0 e1 da 2d 3d 88 98 19 bd b6 da e0 bd 94 0f b5 bd
       0.042445067 -0.03749898 -0.10979216 -0.08840862

model.3.0.weight f4 [15, 15, 3, 3, 3]
000000 45 1d 89 3b ca f2 0f 3e 0c 29 fd 3d 2b d7 23 3e
       0.0041843974 0.1405746 0.12361345 0.16000049
000010 b4 56 2c 3e b6 41 67 3e 67 8d 34 be 0e f6 fe bd
       0.1682995 0.2258366 -0.17632066 -0.12449275
000020 48 f0 81 3d 41 3b 1d 3e 9e ba 5c 3e d5 a7 1f 3d
       0.06344658 0.15354635 0.21555564 0.038978416
000030 9d e8 a8 3d ff b6 5c 3e ca 1a 7c 3e 22 d5 9f be
       0.082474925 0.21554182 0.24619594 -0.31217295
000040 8b 6d c3 be 4e 9b 02 3d e6 f0 3c 3e a4 ff 3d 3e
       -0.38169512 0.03188639 0.1845127 0.1855455
000050 7e 85 2f 3e 03 bb 7f 3e d4 c9 78 3c a1 0e cb 3d
       0.17140767 0.24973683 0.015184838 0.099148996
000060 ec 93 88 be b3 f8 0c bf a0 be b4 bd 20 ce 0f be
       -0.26675355 -0.55066985 -0.08825421 -0.14043474
000070 1c aa 8c bd fa a7 16 3d 3d be d2 3d 50 4a 72 3d
       -0.06868383 0.03678129 0.10290191 0.0591529
000080 82 a6 89 bb 1c 96 4f 3e af a3 1f 3c 35 68 c0 3d
       -0.0042007575 0.20272106 0.009743615 0.09394876
000090 25 72 2e be 14 2c 70 bd a1 d7 1e 3e 71 35 3b be
       -0.1703573 -0.058635786 0.15511943 -0.18282105
0000a0 b9 84 32 be d2 1c 19 bd 47 41 af bc c5 63 0c 3c
       -0.17433442 -0.037381 -0.021393431 0.008568709
0000b0 aa 2d 1d be a8 40 9e 3c 77 07 1a 3d 6e cd c1 bc
       -0.1534945 0.01931794 0.037604775 -0.023657527
0000c0 90 ef 2a ba eb 38 2a be ac ce ee bd 58 dc d5 3b
       -0.0006520683 -0.16623275 -0.11660513 0.006526511
0000d0 28 6b f2 3c e2 8d 71 bc 49 6f 41 be d2 d1 1c 3c
       0.029592112 -0.0147433 -0.18890108 0.009571509
0000e0 9b 0e 10 3e af ff 3a be 51 bf 69 3d c6 50 05 be
       0.14068072 -0.18261598 0.05706722 -0.13019094
0000f0 0e dc 26 3e b8 37 b1 3d 55 ba 87 bd 43 bf de 3d
       0.16294882 0.08653206 -0.06627337 0.10876324
000100 46 47 6a 3e e5 02 00 bd 2a 43 99 bd 16 ca cd 3b
       0.22878751 -0.03125276 -0.07483514 0.006280194
000110 d8 50 ab 3d 20 b3 40 3c 7e ac 5e 3d 05 59 05 be
       0.08365029 0.011761457 0.05436372 -0.1302224
000120 83 c5 55 bd 13 06 89 bd 92 08 2d be 84 d0 00 bd
       -0.052190315 -0.06690612 -0.168978 -0.031448856
000130 85 9b c4 3b 4b fd 1e be a7 af d4 bd 62 a3 90 3a
       0.0059999847 -0.15526311 -0.103850655 0.001103502
000140 ce 93 81 be c5 56 88 3d 1a f8 88 bc 39 ee 2a be
       -0.2530808 0.06657175 -0.016719867 -0.16692437
000150 13 3a 43 3d 81 b6 d8 3c 1a 23 15 be 45 ad 9f be
       0.047662806 0.026454212 -0.14564171 -0.31186882
000160 a8 4f a5 be 05 44 11 bf ae 97 4c 3d 33 bb 36 bd
       -0.32287335 -0.56744415 0.04994934 -0.04461212
000170 48 46 4c 3d 33 9a 54 3e 37 de 47 3c a5 a3 2b be
       0.049871713 0.20761947 0.012198976 -0.16761644
000180 e7 26 bf bd da 39 48 be 0b ae 50 be c7 0c be bd
       -0.09333592 -0.19553319 -0.20378892 -0.09279781
000190 71 50 ac be 87 b2 e2 3c 23 06 20 be 75 91 1c be
       -0.33655122 0.02767302 -0.15627341 -0.15289862
0001a0 f2 5b 53 be 35 d1 c0 bd a8 2c 61 bd 3e ec 80 be
       -0.20640543 -0.09414903 -0.05497423 -0.25180238
0001b0 64 c1 b8 bd 73 63 3b bd 47 34 15 be a9 98 f5 3d
       -0.09021261 -0.04574914 -0.14570723 0.11992008
0001c0 d5 81 76 bd f3 b9 59 be 36 5c 1b be 33 b3 fb bd
       -0.06018241 -0.2126234 -0.15171894 -0.12290039
0001d0 29 61 52 be f2 69 09 3e 05 e5 a4 3d 21 a1 84 bc
       -0.20544876 0.13419321 0.080514945 -0.016190113
0001e0 6d 42 32 3e fc 50 91 bd c7 7d eb 3d e0 f1 9c bc
       0.17408152 -0.07095525 0.114985995 -0.019158304
0001f0 04 ab 52 bd d8 a5 b3 bd 16 84 5d 3d 89 08 4c 3e
       -0.051432624 -0.087718666 0.054081045 0.19925131
000200 cd 52 57 3e 5f ff 85 bd 7e 01 01 3c 49 54 46 3e
       0.2102768 -0.06542849 0.007873891 0.1936809
000210 e1 f1 73 be 82 26 ab be 83 30 3a be 0f 5e ad 3e
       -0.23822738 -0.33427817 -0.18182568 0.33860824
000220 0e 23 0d 3e 19 f1 1e be b2 3f 04 3d f8 d4 5c be
       0.13782904 -0.15521659 0.032287307 -0.21565616
000230 27 b7 a3 bd 6b 87 a9 bd 78 d5 75 be d6 3a cb bd
       -0.07993918 -0.08277782 -0.24007213 -0.099233314
000240 55 63 04 3d 6e 89 3a 3e c2 b7 32 3e e9 25 90 3d
       0.032321293 0.18216488 0.1745291 0.07038481
000250 f6 4a f4 bd f8 c0 22 be 91 3d 00 3e 44 16 e7 bd
       -0.1192836 -0.15893924 0.12523486 -0.11283544
000260 40 02 22 bd b4 d2 c6 be 5a 2e 98 be da d5 e0 bc
       -0.039552927 -0.3883263 -0.29722863 -0.027445722
000270 76 91 82 3c bb 94 15 3e 0a d7 d2 bd fc 1e 28 bd
       0.015938502 0.14607517 -0.10294922 -0.041045174
000280 93 d0 a9 3c 97 c5 31 3c f8 30 8c 3d 07 0d 18 3d
       0.020729339 0.010850332 0.068452775 0.0371218
000290 e8 e1 ff bc 2a 7b 00 bc 34 5e 37 3d 19 f9 16 3c
       -0.03123565 -0.007841865 0.044767573 0.009214663
0002a0 bf 76 75 3e 9a d8 1d 3e 08 01 75 3e 7e ff 58 bd
       0.2397108 0.15414658 0.23926175 -0.05297803
0002b0 b2 a8 59 3e c4 0f 7d 3d 26 85 cc bd f8 db 47 3d
       0.21255758 0.061782613 -0.099863335 0.048793763
0002c0 32 47 f8 bd 53 84 0f bd 40 8b 00 3d 28 b8 8e 3d
       -0.121229544 -0.035038304 0.0313828 0.06968719
0002d0 04 2f 96 bd fe 3a 94 3d ef d9 43 bc a0 ba 02 be
       -0.07333186 0.07237814 -0.011953815 -0.12766504
0002e0 0f 0c ab 3c 4c 67 69 3d 12 21 1a be 4f 56 d2 bd
       0.020879773 0.056983277 -0.15051678 -0.10270368
0002f0 a6 31 2d be b3 f1 bf 3e 24 71 03 3f ed ac c1 3d
       -0.1691347 0.3748909 0.51344514 0.09456811
000300 cc ab 60 3e 61 ff bc 3e 45 84 15 3e 48 ef c8 be
       0.21940535 0.3691359 0.14601238 -0.39245057
000310 31 d3 0c bf 94 c1 ca be cf 7a 8d bc 59 28 0d 3f
       -0.5500975 -0.39600813 -0.017270474 0.5513969
000320 17 e4 54 3d 8e f5 2b 3e c6 12 4f 3e 24 d7 57 3e
       0.051975336 0.1679289 0.20222005 0.21078163
000330 7f 33 00 be f0 75 82 be 51 c7 8f be 5c c6 26 be
       -0.12519644 -0.25480604 -0.28081754 -0.16286606
000340 e0 d2 62 3c 3e 9e 0a bd 7d 4b b6 3d 23 fb 59 3d
       0.013844222 -0.033842318 0.08901117 0.05321802
000350 6e e2 e8 39 a9 aa 88 bd f4 25 26 be ff 3f 9d bd
       0.00044419192 -0.06673176 -0.16225415 -0.07678222
000360 61 2c e0 be 6f fb 17 bf 43 7f fb be 66 bf c2 bc
       -0.43783858 -0.5936803 -0.4912053 -0.023772907
000370 6d 05 19 bf e6 0b 12 bf e6 d6 92 3e 13 f5 95 3e
       -0.59773904 -0.57049406 0.2867958 0.2928854
000380 2a f9 c7 3d 64 0a 45 3a c2 e4 9e be 84 f3 9a bd
       0.09764321 0.0007516502 -0.31033903 -0.07565978
000390 ae 8a 8b 3e 5e 27 66 be 07 94 6a be 2b 81 3f 3e
       0.27254242 -0.22475955 -0.2290803 0.18701617
0003a0 9d 42 36 3e 21 12 90 bd 89 74 4e bd 76 da 46 be
       0.17798848 -0.07034708 -0.050404105 -0.19419274
0003b0 95 aa a1 bc 8c 07 bc 3e 3d c4 a4 bb 1d 83 22 be
       -0.01973466 0.36724508 -0.0050282762 -0.15870328
0003c0 24 33 e6 3d 8e 01 6e 3d fd 6c 46 be 36 81 ab 3e
       0.11240223 0.05810695 -0.19377513 0.33497018
0003d0 04 12 86 3e f5 49 4f be 58 96 97 be c3 d4 11 bd
       0.2618562 -0.20243056 -0.2960689 -0.035603296
0003e0 c4 f4 a6 bd cd db 53 be d5 54 65 be f6 f5 64 be
       -0.08152154 -0.20689316 -0.22395642 -0.22359452
0003f0 d2 26 04 be 96 46 8e 3e cf c5 83 bd 7c 03 98 be
       -0.12905434 0.27788228 -0.06434213 -0.29690158

model.4.0.weight f4 [15, 15, 3, 3, 3]
000000 76 f9 20 3e d1 60 4d 3d b4 8d 00 3e 84 0c e3 3d
       0.15720162 0.05014116 0.12554055 0.110863715
000010 99 ec 0d 3d bd e3 8e bd c8 df 3a be 68 7a 66 be
       0.034649465 -0.069770314 -0.18249428 -0.22507632
000020 22 fa 10 3e f6 2e 05 3d aa 97 52 3d be b3 cf bd
       0.14157918 0.03251549 0.05141417 -0.10141705
000030 fc 3b 38 3d f8 c5 bd bd e7 4d 5f be 40 00 4f bc
       0.04497908 -0.09266275 -0.21807061 -0.012634337
000040 bb 6e 9f be f9 49 c1 be 1e 5f 04 be 61 27 1c be
       -0.31139168 -0.3775175 -0.1292691 -0.15249397
000050 52 cb 4c bd 79 43 28 3d a8 54 86 bd b9 d7 3b be
       -0.04999859 0.041079972 -0.06559116 -0.1834401
000060 1a fc 65 3e 6c f9 5d be aa 4c 8e be 78 96 36 3e
       0.2245945 -0.21677178 -0.27792865 0.17830837
000070 26 cc 31 3a 77 24 48 bd 26 0c b6 3b 21 f3 95 be
       0.00067824346 -0.0488629 0.0055556474 -0.29287055
000080 56 eb de bd 6a ce f9 bd e0 ca 84 be 93 44 c1 3c
       -0.108847305 -0.121975735 -0.2593603 0.023592269
000090 74 ec 9a 3c cf a5 d8 bd cd 53 d2 bc d8 31 e1 bd
       0.018911578 -0.105785005 -0.025674725 -0.10995835
0000a0 b9 f2 09 be e2 d3 8c be 94 3d c3 be d1 6c ad be
       -0.13471498 -0.27505404 -0.38132918 -0.33872083
0000b0 fb ce 76 be 61 51 67 3e e9 03 3d 3e 65 dd 22 3e
       -0.24102394 0.22589637 0.18458523 0.15904768
0000c0 39 0c 9e 3d cc c4 d4 3c a1 4d e8 bc d1 4d 83 bd
       0.07717175 0.025972746 -0.028357329 -0.06411327
0000d0 96 bd 35 be ff 46 44 be 8c 5d 58 bd 95 91 95 be
       -0.17748103 -0.19167708 -0.05282359 -0.29212633
0000e0 c6 19 76 bd 37 b4 a5 bc d2 b5 f7 bd 8a 37 b4 3d
       -0.060083173 -0.020227535 -0.12095226 0.08799656
0000f0 f6 a1 db 3d e3 ce af bd f7 c2 ae 3d cd e9 49 bd
       0.10724251 -0.085843824 0.0853328 -0.049295235
000100 d4 ea 6c be 80 b6 7d bd 51 ed d6 bd 04 16 27 be
       -0.23136455 -0.061941624 -0.10494483 -0.16316992
000110 cf f4 ea 3d cc a9 09 3e 8c 6c c1 3d 8d 9f e1 3d
       0.11472475 0.13443679 0.09444532 0.1101676
000120 11 21 e0 bd cb a4 89 be a3 4d 44 be 3a 95 f2 bd
       -0.10943807 -0.2688354 -0.19170241 -0.11844869
000130 df 1a c4 bd 8a ad 05 3e ab 8a fd 3d 24 e1 25 3e
       -0.09575438 0.13054481 0.123799644 0.16199166
000140 93 b6 21 3e 35 2b ec 3d c9 6a 35 3e ca 45 88 3e
       0.15792303 0.115316786 0.17716517 0.26615745
000150 93 86 b1 3e 7e a1 34 3e b2 81 9c 3d d2 51 78 3c
       0.34672984 0.1763973 0.07641925 0.015156226
000160 f1 0e 7b 3d 71 35 c0 3c 30 f9 80 3e c3 46 f1 3e
       0.061293546 0.023462983 0.25190115 0.471243
000170 c1 9c 92 3e 04 5f 7f 3e 13 f0 bd 3e da 25 80 3e
       0.2863522 0.2493859 0.37097225 0.25028878
000180 c5 12 3c 3e bc c7 b1 3e d3 28 cd 3d bd e7 11 3e
       0.18366535 0.34722698 0.10017552 0.14248557
000190 9a be e4 3d f0 a8 f9 3d 19 31 06 3e ad a4 c0 3d
       0.11169167 0.121904254 0.13104667 0.094064094
0001a0 20 d8 c9 3d bc c6 c9 bd 51 58 2e 3d e5 21 12 3e
       0.09855676 -0.09852359 0.042564694 0.14270742
0001b0 cb 77 49 bd e4 ab 43 3d a0 b9 63 be 93 14 22 3c
       -0.04918651 0.04777135 -0.22238779 0.009892601
0001c0 7b 3e c6 bd 77 6f e8 bd 9c 55 28 3b 90 48 18 be
       -0.09679886 -0.11349385 0.0025685793 -0.1487143
0001d0 2d c2 c5 be 22 28 51 3d 50 de 0e be 01 7a ca be
       -0.38624707 0.051063664 -0.13951993 -0.39546207
0001e0 ff 20 34 bd b0 e7 8e be 50 45 db be cc ea ab 39
       -0.04397678 -0.2791114 -0.4282632 0.000327906
0001f0 da ce 3d be a5 66 ab be bf 96 9d bd 23 63 a4 be
       -0.18535939 -0.3347675 -0.07694768 -0.32106885
000200 5c d4 ca be b4 6e 22 3d db 06 0b be 2b fc a5 be
       -0.39615142 0.039656356 -0.13576834 -0.3241895
000210 2f 04 ea bc 04 6f 16 be 88 36 a7 be 3f 00 16 be
       -0.028566448 -0.14690787 -0.32658792 -0.14648531
000220 d4 b1 8c bd a4 44 a8 be 8b a1 00 be 06 96 22 be
       -0.068698555 -0.3286487 -0.12561624 -0.15877542
000230 19 f0 a3 be 83 a4 09 be 87 f1 b6 bd 40 9a 3a be
       -0.32019117 -0.13441662 -0.089327864 -0.18222904
000240 81 f0 4a bd 33 25 9d bc 3c 6b 9b be 9f b6 b4 bd
       -0.04954577 -0.019182777 -0.3035525 -0.08823895
000250 d0 9a 6d bd 0b 3f 0c be be e7 fb bd a7 5b 3d bd
       -0.05800897 -0.13695924 -0.12300061 -0.046229985
000260 ac ef 25 be 4b 39 43 bd 9c ea 6b bd 38 b6 bf bd
       -0.16204709 -0.04766206 -0.057596788 -0.09360927
000270 fd 91 07 3b e8 b6 be bd 78 c4 c3 bd 54 cd 53 be
       0.002068638 -0.0931223 -0.09558958 -0.20683795
000280 47 83 81 bd 33 47 23 bd a1 39 41 3e a1 96 0a 3e
       -0.06323867 -0.039862823 0.1886964 0.13534023
000290 0d ad 0d bc e9 b5 53 3e ae 8e 6a 3e 45 0a 64 bc
       -0.008647216 0.20674862 0.2290599 -0.013918464
0002a0 01 e5 0b 3d 92 18 7a 3d f6 05 70 bd 2f d1 84 bd
       0.034153942 0.06105859 -0.058599435 -0.06485211
0002b0 26 cd 23 be 60 04 28 be c7 bb 85 3b 6b cb 52 bc
       -0.15996227 -0.16407919 0.0040812227 -0.012865881
0002c0 14 a7 93 bd 06 59 5b bc ae a1 52 bc 21 eb ce 3c
       -0.07209602 -0.013387924 -0.01285593 0.025258603
0002d0 5e b2 3d be c1 84 93 be 6d 4d 83 be fb 7b d0 bc
       -0.18525073 -0.2881222 -0.2564501 -0.025449743
0002e0 6c 8c 3f be 24 73 85 be b7 78 33 3d ab b8 02 3b
       -0.1870591 -0.26064408 0.043816295 0.0019946496
0002f0 46 f8 7b 3d 31 02 7e 3e ef 59 a9 3e 69 5f a1 3e
       0.06151607 0.24805523 0.33076426 0.31518105
000300 a1 3c 39 3e 86 74 a2 3e f2 1f 27 3e 5a e3 ef 3a
       0.18089534 0.31729525 0.1632078 0.0018302009
000310 f8 e4 f1 bc ae f3 ba 3d e2 eb a4 3e c2 3a ba 3e
       -0.029528126 0.091285095 0.32211214 0.36372954
000320 fb 90 86 3e d6 4c 1e 3e cd 1c 4e 3e f8 26 2e 3e
       0.26282486 0.15458998 0.20128174 0.17007053
000330 4c 37 e1 bd 74 c3 8e bd 24 c3 36 be 8b ef ed 3c
       -0.10996875 -0.069708735 -0.17847878 0.029044887
000340 06 7d 57 3e 50 36 8f 3d a0 f2 e4 bd 41 fe 60 bd
       0.21043786 0.06992781 -0.111790895 -0.054929975
000350 ad 56 b5 bd e7 06 df bd 0f 29 9e bd f3 ed 0e be
       -0.08854423 -0.108899884 -0.07722675 -0.13957958
000360 cc 02 f4 bd 2d e3 13 be 94 0f 27 3d a6 6b 81 3d
       -0.11914596 -0.1444213 0.04078634 0.063193604
000370 f3 9d 0f 3e f8 d8 0b 3e 4b 89 ba 3d 83 26 85 3d
       0.14025097 0.13656986 0.09108218 0.06501486
000380 5e 23 a7 3e 13 c9 24 be ad 3a 53 be ef 98 28 be
       0.3264417 -0.16092329 -0.20627852 -0.1646459
000390 9c 92 34 bd f9 86 83 3d fd 39 c5 3d c4 f9 61 bb
       -0.04408513 0.06422228 0.09630201 -0.0034481147
0003a0 64 b1 43 3d d5 9d 07 3e d2 40 3b be df bb 72 bd
       0.047776595 0.13243802 -0.18286446 -0.0592612
0003b0 86 d8 ff bd b5 ea 6f bd 10 88 8a bd f2 42 01 3d
       -0.124924704 -0.058573443 -0.06764233 0.031557985
0003c0 d5 02 9a be 0a 12 ad bd 0d a1 fb bc 62 b9 86 3e
       -0.30080286 -0.08450706 -0.030716443 0.2631331
0003d0 90 37 0c 3e 64 b5 4d 3e b4 10 b8 3d 3d cb f9 3d
       0.1369307 0.20088726 0.08987561 0.12196968
0003e0 bb 46 63 3e ab 6e b2 3d 06 28 3d bd 0f 7a 97 bc
       0.2219495 0.087125145 -0.046180747 -0.01849082
0003f0 36 51 7b 3e 32 d7 9a 3e 76 d3 c0 3e 18 f3 e8 3d
       0.24542698 0.30242306 0.37661332 0.113744915

model.5.0.weight f4 [15, 15, 3, 3, 3]
000000 41 d9 20 3e 50 80 01 3d 9c 30 1a 3d fb c8 84 3e
       0.15707876 0.03161651 0.037644014 0.25934586
000010 75 98 ad 3d ca cf d1 3d 61 63 6f 3d 0d c4 a3 3d
       0.084763445 0.10244711 0.058444384 0.07996378
000020 e0 03 b0 3d 63 e6 85 3d ad 85 ed bd 3b b8 39 3e
       0.08594489 0.065380834 -0.11597762 0.18136685
000030 bd 39 d1 3d 5c 83 be be f5 f4 0b 3e 40 36 44 bc
       0.10216091 -0.37209594 0.13667662 -0.011975825
000040 b0 00 01 be cc 45 82 3d 4c 2c 99 3c 64 52 48 bd
       -0.12597919 0.06360969 0.01869788 -0.0489067
000050 28 27 68 3c 62 f0 48 bd ff 50 c4 3d 17 b7 97 3d
       0.014169492 -0.049057372 0.09585761 0.074079685
000060 8b 17 00 bd 21 2e b6 3c ff 31 22 3c d6 18 0f 3a
       -0.031272452 0.022238793 0.009899615 0.0005458718
000070 73 40 64 bd be 61 07 3d e3 d8 ba 3d c0 2d 85 bd
       -0.055725526 0.0330522 0.09123399 -0.06502867
000080 02 be e9 3c d5 74 81 be 82 c0 c9 bb 2a fc 4c bd
       0.028532986 -0.25284448 -0.006156982 -0.05004517
000090 d8 19 74 bc 4e eb 8c be 64 05 ef 3d d9 3d f6 be
       -0.01489874 -0.27523273 0.1167095 -0.4809406
0000a0 f1 7e b1 be 74 58 28 3b f9 24 77 be 35 58 93 bd
       -0.3466716 0.0025687488 -0.24135198 -0.071945585
0000b0 89 eb 27 be c4 b8 41 3e 8d d5 2b bd 55 35 21 bd
       -0.16398443 0.18918139 -0.041951705 -0.039357502
0000c0 52 ca 86 3e ce 8e c4 3d 66 a4 d7 3c 0f aa 63 3d
       0.26326233 0.0959755 0.026323508 0.055582102
0000d0 e4 8c c4 3d 47 93 c2 bc c9 24 f5 3c 38 40 12 be
       0.09597185 -0.023751868 0.029924767 -0.1428231
0000e0 64 9b 0f be 90 99 75 3e e3 af 48 bc 02 3a 1f be
       -0.1402412 0.2398436 -0.012248966 -0.15549472
0000f0 d1 72 c9 be a8 b1 ae be cc c4 9e bd 45 d2 e7 3c
       -0.3934541 -0.34119916 -0.0775238 0.028298507
000100 e3 24 e4 3c 25 83 82 bd 10 aa 13 3f cd b9 97 3d
       0.02784962 -0.0637267 0.5768137 0.074084856
000110 a6 79 5b be c0 4e f1 bd bb 35 d1 be 43 cc 80 be
       -0.21433124 -0.117825985 -0.40861306 -0.2515584
000120 e6 3f 21 3e d7 c9 60 bc 68 7a 25 3e 75 a2 2c 3e
       0.15747032 -0.013719997 0.16159976 0.16858847
000130 ba 33 11 3e 78 da 57 3d d0 92 d2 bd cf 5a 03 be
       0.14179888 0.052698582 -0.102819085 -0.1282761
000140 9d 2d bc bd 96 8d 36 3e c4 ac 1b 3e 31 f0 0b bd
       -0.091883875 0.17827448 0.15202624 -0.03416461
000150 b0 da 68 3e 4d a0 05 3e 09 b9 14 3c a5 9d 53 bd
       0.22739673 0.13049431 0.009077319 -0.051664013
000160 d9 68 4f bd 08 fb f9 bc 4e 3a de 3e b2 da 1d 3e
       -0.0506371 -0.030515209 0.43403858 0.15415457
000170 8c 1f df 3d c1 43 9b 3e 77 08 95 be 25 98 4e ba
       0.10894689 0.3032513 -0.2910802 -0.00078809477
000180 f5 ee 01 3e ee 51 5d 3e 18 41 d7 3c fc 7c 88 3d
       0.12688811 0.21613285 0.026276156 0.06664464
000190 d9 75 79 bd 6a 71 11 3e ad 20 81 3e d5 d4 7d 3e
       -0.060903404 0.1420342 0.25220242 0.2478822
0001a0 83 7c 00 3e 60 cc 48 be 45 5b 41 be 84 0d b5 bd
       0.12547497 -0.19609213 -0.18882473 -0.088404685
0001b0 53 16 85 3a 5c 43 27 3e fd 67 a8 3d 8b b6 85 bd
       0.0010153748 0.1633429 0.08222959 -0.06528958
0001c0 fa 3b 86 bd ce 94 e5 3c 90 c3 fd bd 43 d9 26 be
       -0.06554408 0.028025057 -0.12390816 -0.16293816
0001d0 3a 49 36 3d f0 e8 8d 3d 70 43 7b 3e 12 86 fc bd
       0.044503428 0.06929195 0.24537444 -0.123302594
0001e0 6f 23 6e be 64 c1 39 3f 5c 4b 62 bd 3d ec 05 3c
       -0.23255704 0.72560716 -0.05524765 0.008173999
0001f0 dc 84 36 3e 72 e9 7e bd 57 cc 88 bc 1a 95 de 3d
       0.1782412 -0.06223435 -0.016699 0.108682826
000200 7c 5f 2f 3e c1 e3 ce bd 95 59 1e be 6c 98 e0 3c
       0.17126268 -0.10102034 -0.1546386 0.02741643
000210 c8 63 f2 3b 2c 66 e3 3d 65 0a 79 bd 8b 3e 72 3d
       0.0073971488 0.11103472 -0.06080093 0.059141677
000220 cc fa cc 3d 3d aa 89 3c ac c8 d5 3d ff 55 0e bd
       0.10008773 0.016804809 0.10438666 -0.03474998
000230 7f 9a 04 3e 0a 59 41 be 4d 9c 39 be 63 e2 02 be
       0.1294956 -0.18881622 -0.1812603 -0.12781672
000240 06 1f 2a bd 05 0f a0 3c d7 a1 82 3d e2 9a 2b be
       -0.041533493 0.019538412 0.06378525 -0.16758302
000250 d5 31 86 be 82 25 12 be 6b 74 c2 3d a3 2a c3 be
       -0.26209894 -0.1427212 0.09494861 -0.38118467
000260 d2 e4 a3 bc e8 cf 9b 3c c5 a9 35 bd a5 ca 86 3b
       -0.020006571 0.019020036 -0.044351358 0.0041135126
000270 e4 fe 0e 3e 43 a5 0c 3d e3 f2 80 ba 28 13 44 3d
       0.1396442 0.034337293 -0.0009838011 0.04786983
000280 98 c8 12 bd 2b c0 71 bc 04 ba 0a 3e 9a 13 60 3e
       -0.035835832 -0.014755289 0.13547522 0.21882477
000290 27 d2 95 bc 4b 90 1e 3d b5 48 10 be b6 59 2d 3e
       -0.018288685 0.038711827 -0.14090236 0.16928753
0002a0 21 19 fa 3d 8e a7 36 bd e7 e3 24 3e 9c 71 fe 3d
       0.12211824 -0.044593386 0.16102563 0.12424013
0002b0 bd c2 1e bd da 98 a5 3d a6 ea 93 3e 64 7d 8e bd
       -0.038759936 0.08085795 0.2888996 -0.0695751
0002c0 0b 76 94 bc e0 45 66 3e 01 d9 87 bd 36 b2 95 3d
       -0.018122694 0.22487593 -0.06633187 0.07309382
0002d0 88 83 65 3d 91 f5 1f 3e 85 f7 aa bc 51 59 9c 3d
       0.05603364 0.1562102 -0.02086998 0.07634223
0002e0 73 9e 4f 3e b5 48 af 3d 4b ea 58 be db 0b 18 bc
       0.20275287 0.0855879 -0.21183126 -0.00928017
0002f0 17 6f 28 bd 81 5d e4 3d 9b 36 fe 3d 4e a7 4d 3e
       -0.04112157 0.11150647 0.12412759 0.20083353
000300 35 27 df 3e 77 c3 ae bd 6d c7 33 3d 9f 9f 13 be
       0.435846 -0.08533376 0.04389136 -0.1441636
000310 fa c8 2e be 6b f1 a6 3c 6d 4d 49 3e 67 e9 c2 3d
       -0.17068854 0.020378789 0.19658442 0.09517174
000320 c7 73 a5 3d 1a fd 94 3f c5 a7 f3 bd b6 9f 2a bd
       0.080787234 1.163974 -0.11897234 -0.04165622
000330 49 09 7c be b0 fa b1 bd 7a 6c fd bd b3 04 3f 3e
       -0.24612917 -0.08690393 -0.12374206 0.18654136
000340 63 2d 2c 3e f0 53 e8 3d c3 17 c5 3e 5f a9 ab 3d
       0.16814189 0.11344135 0.3849469 0.08381914
000350 be 17 45 3d 45 91 18 be 70 c6 ec 3d 3c 3c 10 3d
       0.048118345 -0.14899166 0.115612864 0.035213694
000360 a5 4e de bd 7e e6 a4 3d fe 25 5a bd ce 27 98 3e
       -0.10854844 0.080517754 -0.05325889 0.2971787
000370 1b ca 33 3e ce 35 69 3c cb 77 ca 3e 18 97 d5 3d
       0.17557566 0.014234019 0.3954452 0.104292095
000380 50 e8 f5 3d ec 7b 55 3e 64 45 0c 3e 3c d8 af bd
       0.12007201 0.20848054 0.13698345 -0.08586165
000390 a6 a1 c1 3e eb af d4 b9 0a e0 87 3d f9 86 23 3d
       0.3781864 -0.0004056686 0.06634529 0.03992364
0003a0 9c 56 28 3c b2 06 c3 3e fa 8a 79 be 89 4b af bd
       0.0102745555 0.38091046 -0.24369422 -0.08559329
0003b0 0f 35 ec 3b 4c 7a 83 bc 29 e9 28 3e 98 7f 96 3c
       0.0072084735 -0.016049527 0.16495194 0.018371388
0003c0 ec d1 1d 3e d9 3e ea 3b cc b0 50 3e f4 e2 0c be
       0.1541211 0.0071486053 0.20379943 -0.13758451
0003d0 87 07 c5 bd b1 c9 48 bd 34 d1 1c be 7e f4 ff bd
       -0.09620576 -0.049020473 -0.1531418 -0.12497805
0003e0 60 df 34 3e c8 51 38 3e 17 2c a8 3d af 3b ec 3c
       0.17663336 0.17999947 0.082115345 0.028837053
0003f0 89 9f 28 3d 7c 1b 62 bd 0d b5 14 3c 8b 37 82 be
       0.04116777 -0.055201992 0.009076369 -0.25433

model.6.0.weight f4 [15, 15, 3, 3, 3]
000000 b1 8a 1a 3e 77 3b 04 be d4 32 63 bd 11 44 2f 3e
       0.15091969 -0.12913309 -0.055468395 0.17115809
000010 10 44 0d 3e 3c b5 85 3d 5e 68 96 3d ba e9 91 3d
       0.13795495 0.06528708 0.07344125 0.07124658
000020 5f 86 b7 be e0 31 40 3e 67 78 a1 bd 49 c6 7a bd
       -0.35844705 0.18769026 -0.07884293 -0.061224256
000030 f2 b1 e7 3e f3 66 64 3e a3 93 72 bd 86 8a 8d 3e
       0.4525295 0.22304897 -0.05922283 0.27644747
000040 5b 3b fd bb f3 82 1b bf 9f 17 3d 3e cf 31 31 be
       -0.007728023 -0.6074669 0.18466042 -0.17304157
000050 fb 1e 0a 3c 65 a3 60 3e 7e be 10 3e b0 45 49 3e
       0.008430238 0.2193733 0.14135167 0.1965549
000060 29 48 f4 bd 6e b4 76 3d 55 2a d1 be 8d 03 93 3d
       -0.11927826 0.060230665 -0.4085261 0.07178412
000070 c2 a8 bc 3d eb 6b a0 3e 9c 6d d4 3d 9f d9 ca 3d
       0.092118755 0.31332335 0.10372469 0.09904789
000080 f0 b6 9a 3c a3 8c 9c 3e de 9b 74 be 8e 2e 43 3e
       0.01888606 0.30576047 -0.23887584 0.19060728
000090 19 28 ca bd 49 50 5b 3e 33 e6 25 3e 7d 26 25 3e
       -0.09870929 0.21417345 0.16201095 0.16127963
0000a0 64 11 8a 3e 86 7d 30 bc 8f 9e 63 3e e6 ca a3 be
       0.26966393 -0.010772115 0.22228454 -0.31990737
0000b0 1b 59 21 be 6d 2b b8 bc f3 1e 34 3e fc a7 3a 3e
       -0.15756647 -0.022481645 0.17589931 0.18228143
0000c0 f6 b6 9b 3d 55 7b 0a 3e 6e 69 51 3b 3e 0a 4a 3e
       0.076032564 0.1352361 0.003195371 0.1973047
0000d0 92 14 2a be ea d7 8b bd 1d f9 17 bd 7d 33 d4 bd
       -0.1660941 -0.06828292 -0.037102807 -0.10361383
0000e0 f7 90 67 be 5e ae 0a 3e 82 c0 11 3d 81 2c 2b 3d
       -0.22613893 0.13543078 0.03558398 0.04179049
0000f0 50 af 84 3d 29 aa 76 3c 7a d8 70 3e e3 56 a4 3d
       0.06478751 0.015055218 0.2352008 0.08024385
000100 48 21 70 be 8e 1f 00 be e6 42 6a 3e c3 e7 29 3e
       -0.23450196 -0.12512037 0.22877082 0.16592316
000110 73 42 6b be ba 0e 58 3e 8c 8b 31 3e ab 3a 0e 3e
       -0.22974567 0.21099368 0.17338389 0.13889568
000120 1b 28 86 3d 00 9a aa bd ed f0 55 be 1f 59 26 3d
       0.06550618 -0.083301544 -0.20892687 0.040612336
000130 0e 6a e2 3d e5 cf d5 bd 90 6c 9d bb 0d fb 86 bc
       0.110553846 -0.10440043 -0.0048042014 -0.016477132
000140 4a a3 7b be 49 7b e7 3d fb 86 7a bc 16 2f e0 bc
       -0.24574009 0.11302812 -0.015290971 -0.027366202
000150 9f ef a1 3c 22 4b 66 bc b0 60 2c 3e 3f f9 11 bd
       0.01976758 -0.014055999 0.16833758 -0.03563809
000160 47 71 de bc 71 43 99 be 7f 1e 93 3e 81 47 38 3e
       -0.027153624 -0.29934266 0.28734204 0.17996027
000170 c2 88 b0 3d 1a c9 94 bd e5 84 05 be 18 e9 21 be
       0.086198345 -0.072649196 -0.13038976 -0.15811574
000180 43 37 1f be 1e 07 99 be fc 1b 23 bf c4 ca 55 3e
       -0.15548424 -0.29888242 -0.63714576 0.2087813
000190 07 30 d6 3d f3 b2 3c 3d 9c 8f c8 3d a5 bc 34 3d
       0.10458379 0.046069097 0.09793016 0.044125218
0001a0 f4 46 f0 bd 27 91 8a be 46 2b a4 bd 42 6e f2 bb
       -0.11732283 -0.27063867 -0.08016066 -0.0073983977
0001b0 b6 70 1c be 3d 33 ad bd 56 3a ae be 74 51 5c 3d
       -0.15277371 -0.084570386 -0.34028882 0.053788617
0001c0 b4 75 15 bc a6 ea 1e bd ff 6b 02 3e af e6 47 3e
       -0.009122301 -0.038797997 0.1273651 0.19521593
0001d0 98 a3 e0 bd 28 97 8c be 4a 1d 90 be d2 7f 97 be
       -0.10968703 -0.27459073 -0.28147346 -0.29589707
0001e0 15 b7 d9 3d 9d be 00 be 84 27 3a bc 4a 7e 19 3e
       0.10630623 -0.12572713 -0.01136196 0.14989582
0001f0 0d 3e 1b 3e f2 28 5e be 71 90 7a 3b 1a 06 81 be
       0.15160389 -0.21695307 0.0038233066 -0.25199968
000200 15 15 8c bd 70 99 a4 3e 8e 10 16 3e 0f 5e 5a 3d
       -0.068399586 0.32148314 0.14654753 0.053312358
000210 df ee a1 3e 54 60 a8 3e 1c 6b 78 3e a2 bc 12 bd
       0.31627557 0.32885993 0.24259609 -0.035824426
000220 c6 0e bd 3d 9a 44 b9 3d 92 54 82 3e 5c f3 12 3e
       0.092313334 0.09046288 0.25455147 0.14350647
000230 09 79 d1 3d 95 4d f9 bd 7e 75 15 3d d0 23 6b bd
       0.10228164 -0.12173001 0.036489002 -0.0574072
000240 03 5a 48 be 76 59 92 be b1 ac 06 be 6c f2 0e 3c
       -0.19565587 -0.28583878 -0.13151814 0.00872479
000250 6b 6d 12 be ce fe 8a bd de 0d 70 bc f8 e4 a6 bd
       -0.14299552 -0.067868814 -0.014651744 -0.08149141
000260 b7 00 e5 bb 3a d6 4f 3d 1d e3 6a be 40 1c 26 be
       -0.0069886106 0.05074141 -0.229382 -0.16221714
000270 be bb 23 bd 14 c7 80 be fa 47 2a 3d 66 9e 36 be
       -0.039973967 -0.25151885 0.04157255 -0.17833862
000280 c5 f4 87 bb ca 58 ac be 4f 5a 0e 3e c0 22 63 bd
       -0.004149052 -0.3366149 0.13901637 -0.055453062
000290 65 7a e7 3d 76 9b a8 bd b1 d9 ff 3d df dc f6 3d
       0.11302642 -0.08232777 0.12492693 0.120538466
0002a0 a1 e7 73 be ec 51 43 3e fb ea 89 be 80 10 01 3d
       -0.23818828 0.1907422 -0.26937088 0.031509876
0002b0 fe 46 3f bd 60 24 00 3e 17 f2 4c 3e c6 72 65 3d
       -0.046698563 0.12513876 0.20014225 0.05601766
0002c0 a4 37 2d bb 9f 30 d1 be c1 52 2c be 4d 08 c6 be
       -0.002643087 -0.40857407 -0.16828443 -0.38678208
0002d0 69 d5 ae 3d 2d 07 8d bd 52 62 80 3d 1b 31 f9 3c
       0.085367985 -0.06886134 0.06268753 0.030418923
0002e0 10 8a 3d ba fd 11 ce 3c e9 70 da 3d 7a 77 7e 3e
       -0.0007230351 0.025155062 0.10666067 0.24850264
0002f0 ef af 91 3e 10 46 e5 3c a6 97 99 3d 71 72 30 be
       0.2845454 0.02798751 0.07499628 -0.17231156
000300 1e d9 56 3e 49 68 95 3d e7 5a f5 3c ee f2 1a be
       0.20981261 0.072952814 0.029950572 -0.15131733
000310 a2 78 0a 3e ca de 86 be 18 d8 96 3b e8 e0 48 3d
       0.1352258 -0.2634185 0.004603397 0.049042612
000320 04 55 a9 be 6b 7e 5e 3e d4 05 35 3e 6d 73 85 be
       -0.33072674 0.21727912 0.17678005 -0.26064625
000330 ef c2 99 3c 7f 98 48 3e 24 59 ab be e6 72 5f 3d
       0.01876971 0.19589423 -0.33466446 0.054552935
000340 84 c3 c6 bc 71 d3 61 3e d6 1d 10 3d d6 db 57 3d
       -0.024263151 0.22053315 0.035184704 0.052699886
000350 cc 02 d8 3d 6f 2e b2 bd 91 ab c2 3d a3 2d 3c 3e
       0.105474085 -0.08700263 0.0950538 0.18376784
000360 af 15 bc bd c3 20 ab 3d 49 59 29 3e 9c 77 1b 3c
       -0.09183823 0.08355858 0.16537966 0.009488966
000370 6a 8a ae 3d 2c 76 6c 3e e1 6d 82 3e 68 3c 5b 3e
       0.08522494 0.23091954 0.25474456 0.21409762
000380 01 4e 08 bf f4 db 57 be ed 7f f6 3d ce 6c 8d 3d
       -0.53244025 -0.21079999 0.12036119 0.069055185
000390 fa 68 7d 3e b0 93 b0 bd e9 83 d8 3d 53 c9 9e 3e
       0.24747077 -0.08621919 0.10572035 0.31012973
0003a0 f3 dc cb 3d 85 af 16 bf bc bf 1c be f8 43 b8 3d
       0.09954252 -0.5886157 -0.15307516 0.08997339
0003b0 27 88 5a 3e ed 00 36 bd 89 76 43 be 35 9f 59 3d
       0.21341 -0.044434477 -0.19088186 0.053130347
0003c0 bb 1a b5 3c e9 57 d3 3c 4d 7e c9 3c ed e1 e1 3d
       0.022107473 0.025798755 0.024596358 0.1102942
0003d0 3b 0c 94 3d 34 20 45 3e 7f 1d f4 3c 3c b6 0c 3e
       0.07228895 0.19250566 0.029799221 0.13741392
0003e0 b2 ae 3e 3d 0c 2b 69 3e 31 aa b0 bd 95 2c 73 3e
       0.04655332 0.22770327 -0.086262114 0.23747475
0003f0 73 06 9d 3e 85 06 4b 3e 64 d0 ec 3d 3b 87 48 be
       0.30668983 0.19826706 0.11563185 -0.19582836
